model.pth (torch, 15092 bytes, 5 tensors)

weight f4 [64, 10]
00000000: fba0 90be b80d 9ebe 60bc 363d 0375 76be
00000010: 85aa 8e3e 2c41 92bd fa7d 8abe f193 37be
00000020: 2e83 94be d085 1c3e f0bf 71be 59e9 9b3e
00000030: 09b8 04be e0cf 9dbe beac 90be 48cd 1c3e
00000040: e6da acbd 809a 573d 400f 65be 20e8 fe3c
00000050: 0cc8 1b3e af6f 8b3e 0de3 98be aaca e2bd
00000060: 1661 40be fc90 233e 68fc 7ebe f3d6 92be
00000070: 20f6 9cbe 360d 443e d280 9dbd b65c 6d3e
00000080: 18e6 013e bec4 88be 6061 673c ccd5 27be
00000090: b885 17bd a036 ff3c 6f99 2dbe 101d 41bd
000000a0: 9919 55be 80fd debb 82ed b5bd f803 c43d
000000b0: f6ee 62be 6a1b 433e d919 903e 58b3 c5bd
000000c0: 92a9 08be 0cbd 91be 479d 8d3e 7eb2 213e
000000d0: 025a 463e 40f1 ffbd 2f3c 0ebe 047e ad3d
000000e0: 9664 9cbd a01e f3bc 06b2 0a3e 8b4d 2cbe
000000f0: 3007 62bd 40ff 9dbe 28f4 f53d 409e 9ebd
00000100: db1f 08be 6e6c 153e a5e6 9d3e 520d 703e
00000110: 8864 a63d c157 923e ba23 743e 7560 83be
00000120: f00b b23d 701c ea3c 20c3 9bbc ea4b 643e
00000130: b9ad 0bbe 52ab 3c3e 03c3 8a3e 98dc 0dbd
00000140: 00e0 153d b85b 89bd 870b 1bbe 928f 673e
00000150: 5506 3cbe fe1a 30be 082a 21bd 469d 2c3e
00000160: 2ca7 183e 0212 90be 2aa7 073e 3600 edbd
00000170: 0058 10bc 9b81 8abe 88c8 85be 8097 203e
00000180: 805d 9d3c e86c 9b3d 0cb0 853d c598 68be
00000190: e879 8d3d 381a 39bd a093 6b3d 0848 163e
000001a0: edbb 32be 0863 7cbd 20eb 7e3d 308c bb3d
000001b0: 5689 77be 08e4 d3bd 4ccd 86bd 5b11 8ebe
000001c0: 583d 583d 3304 9e3e 5f34 9b3e 6656 433e
000001d0: b027 a8bd 5a3a 87be 01ad 9fbe 295c 91be
000001e0: d37b 75be 1299 12be e018 1bbe 9075 b63d
000001f0: babc 8cbe 016f 9abe bd69 8f3e 402a 1e3c
00000200: ec3d e53d 851c 0fbe e8bf 47be a435 fe3d
00000210: 3003 82bd c410 44be aa0a 46be 1f84 9fbe
00000220: 4ccb 2d3e da93 5c3e 8856 afbd 6a4c ffbd
00000230: 1cea d13d 5644 2d3e 883d 063d 9a06 793e
00000240: a862 4fbe dfab 893e 96a0 543e 3b39 23be
00000250: b744 23be 8f37 a13e 3c92 bebd 34d9 43be
00000260: 7a86 91be 6076 3d3c b2b8 37be 02bc edbd
00000270: c348 39be b0ee 6cbd 301b df3c ab6b 803e
00000280: c033 7d3c 50c1 2dbd b235 74be ca26 493e
00000290: c853 0c3d 3078 b63c a273 763e c05f 583c
000002a0: e059 5c3c 8420 92bd c89d 10be 6eb9 29be
000002b0: e0b9 213d e8cf 4f3d fe11 08be be29 783e
000002c0: 3572 9a3e cd34 70be 4bc7 88be f602 5cbe
000002d0: acda c13d 25c0 25be 46c6 213e ce00 5d3e
000002e0: a2bf 1f3e cba6 943e 11f9 8c3e 4009 2bbd
000002f0: 45ca 883e 3edd 173e dc7c e33d 68d7 7ebe
00000300: 22b9 8ebd 80e6 c3bd 5164 50be e610 313e
00000310: 10ba 283d 5f11 8c3e 8026 94bb 1658 93bd
00000320: de22 cfbd 7ce5 873d 7e98 533e 2d46 823e
00000330: 1da5 843e c81b 293d 921c ccbd d0ef f0bc
00000340: abbe 91be b660 82be 8039 9fbc e0e3 14bc
00000350: ece0 b33d e058 27bd e1c4 9f3e 008a bdbc
00000360: bea9 4a3e b8b4 7abd 08b5 c33d d8a1 47be
00000370: 65a2 7dbe 089f b9bd 5289 213e 95a5 41be
00000380: 3af6 7a3e d0bc ba3c 88b9 50be 004e edbd
00000390: c8ac 85be 5f89 97be 7ce8 67be ac00 7ebe
000003a0: 6ca6 d83d e842 d2bd 5802 0bbe 7feb 923e
000003b0: 7d29 4dbe 1622 573e a8c0 2b3e 22ae 1a3e
000003c0: cc5f ea3d aee7 8fbe b037 153e 2a86 bcbd
000003d0: e0d0 ef3c f9aa 01be a05e 09bd 701d 55bd
000003e0: 45f9 26be 40de 12bd 1cad 7fbe b0dc 143e
000003f0: fe44 a3bd 145a 7abe d031 be3c 7dd9 933e
-0.28247818 -0.30869842 0.044613242 -0.24068074 0.2786447 -0.07141337 -0.27049237 -0.17927529
-0.29006332 0.1528542 -0.23608375 0.30451468 -0.12960829 -0.3082266 -0.28256792 0.15312684
-0.08440189 0.052637577 -0.22369099 0.031116545 0.1521303 0.27233645 -0.29860726 -0.11073811
-0.18787035 0.15973276 -0.24900973 -0.28679618 -0.30656528 0.19145665 -0.07690586 0.23179898
0.1268543 -0.26712602 0.014122337 -0.16390151 -0.03699276 0.031153977 -0.16953062 -0.047146857
-0.20810546 -0.006805122 -0.08883192 0.095710695 -0.22161469 0.19053426 0.2814472 -0.09653348
-0.13345936 -0.28464544 0.27659056 0.15790746 0.19370273 -0.12497187 -0.13890146 0.08471301
-0.07636373 -0.02967769 0.13544473 -0.16826455 -0.055182636 -0.30858803 0.1200946 -0.077450275
-0.13293402 0.14592144 0.3084003 0.23442581 0.081246436 0.28582576 0.23841754 -0.25659528
0.08693683 0.028578013 -0.019013941 0.22294584 -0.13640489 0.18424729 0.27101907 -0.034634203
0.036590576 -0.06706947 -0.15141116 0.22613361 -0.1836179 -0.17197797 -0.039346725 0.1685687
0.14907521 -0.2813874 0.13247362 -0.11572306 -0.008810043 -0.27052006 -0.26129556 0.15682793
0.019209623 0.075891316 0.06527719 -0.22714527 0.069080174 -0.04519102 0.057513833 0.14675915
-0.174545 -0.06161788 0.06223595 0.09157598 -0.24173483 -0.10346228 -0.06582126 -0.27747616
0.052792877 0.3086258 0.30313393 0.19075927 -0.08210695 -0.26411706 -0.3118668 -0.28390625
-0.23973016 -0.14316204 -0.15146208 0.08909142 -0.27487737 -0.30162814 0.2801036 0.009653628
0.11193451 -0.13975723 -0.195068 0.12412575 -0.06348264 -0.1914702 -0.19340006 -0.31155488
0.16972083 0.21540776 -0.085614264 -0.12465747 0.10249731 0.169206 0.032773525 0.24318925
-0.20252478 0.2688894 0.20764384 -0.159398 -0.15944181 0.314877 -0.09305236 -0.19125825
-0.2842291 0.011563867 -0.1794155 -0.11608125 -0.18094163 -0.057844818 0.027234644 0.25082144
0.015454233 -0.042420685 -0.23848608 0.19643703 0.034259588 0.022274107 0.24067548 0.013206422
0.013449162 -0.07135108 -0.14122689 -0.16574642 0.039483905 0.050735384 -0.13288113 0.24234673
0.30165258 -0.23457642 -0.26714548 -0.21485505 0.094655365 -0.16186579 0.15798292 0.21582338
0.15600446 0.29033503 0.27533773 -0.04175687 0.2671682 0.14830491 0.111077994 -0.24886858
-0.06968905 -0.09565449 -0.20350768 0.17291602 0.041193068 0.27357003 -0.004521191 -0.071945354
-0.10114072 0.066355675 0.2066364 0.25444165 0.2590722 0.04128626 -0.09966387 -0.029411227
-0.2846578 -0.2546441 -0.019436598 -0.009087533 0.08783135 -0.040856242 0.31204894 -0.023137093
0.19791314 -0.061207503 0.09556013 -0.19495332 -0.2476898 -0.09063536 0.1577504 -0.18910821
0.2450799 0.022795111 -0.20383275 -0.11587143 -0.26108384 -0.29596993 -0.2264728 -0.24804944
0.105786175 -0.102666676 -0.13575113 0.28695294 -0.20035358 0.21009097 0.16772711 0.15105489
0.11444053 -0.28106445 0.14572024 -0.09205277 0.029274404 -0.12662877 -0.033537507 -0.052030027
-0.16306026 -0.035856485 -0.2496838 0.1453731 -0.079721436 -0.24448425 0.023217112 0.28876868

bias f4 [64]
00000000: dae5 06be be7f 753e 5205 b5bd 5382 8d3e
00000010: 82bb ccbd 8153 8bbe e086 283d 9d6f 973e
00000020: 0c7e e33d e8fc 51bd 6d87 68be 819f 8c3e
00000030: fea7 023e 4aa6 1c3e 8e58 7f3e 30d6 ad3d
00000040: 88b7 f1bd aae6 8dbe f03e 63be 80db 753b
00000050: 650e 08be b434 3a3e e0af 98bc f29c 363e
00000060: 1478 50be ae6b 7b3e b75c 9f3e 9720 3ebe
00000070: fa5d 493e dc63 293e 6e7b 1bbe e4fa c43d
00000080: 747a e33d 30e1 9cbc a6c6 223e d840 56be
00000090: a084 053e f052 743d 2074 e3bd 1b29 973e
000000a0: 1c07 81bd a079 55be f2f8 4f3e 6078 f23d
000000b0: c903 31be a3eb 79be 60ef 0a3c 1cf7 dd3d
000000c0: 3cff 11be b607 7abe feea c1bd 6a77 1c3e
000000d0: 78db 4fbe ca85 efbd 20fe 203e f42a 59be
000000e0: 1022 a9bc 0032 f73d 1efa 233e 87f9 8cbe
000000f0: 2db0 9ebe 9805 43bd 0802 163e 5434 62be
-0.13173619 0.23974511 -0.088389054 0.27638492 -0.09996702 -0.27212146 0.04114425 0.29577342
0.11108026 -0.05126658 -0.22707911 0.27465442 0.12759396 0.15297809 0.24936125 0.08488119
-0.11802584 -0.27715045 -0.22191978 0.0037514865 -0.13286741 0.18184167 -0.018638551 0.17833307
-0.20358306 0.24552795 0.31125423 -0.1856712 0.19664755 0.16542 -0.15183803 0.09618166
0.111073405 -0.019150347 0.15896091 -0.20923173 0.13038874 0.059649408 -0.111061335 0.29523548
-0.06300184 -0.20847178 0.20309809 0.11839366 -0.172866 -0.24406295 0.008479923 0.10838148
-0.1425752 -0.24417004 -0.09468649 0.15279928 -0.20298564 -0.1169544 0.15721941 -0.21207792
-0.020646125 0.120700836 0.16013381 -0.27534124 -0.30993786 -0.047612756 0.14649212 -0.22090274

weight f4 [32, 64]
00000000: a8df a63d c817 d93c 74a6 d93d 72bd f73d
00000010: 027b 8abd 0075 f63d dcd5 e73d 4e6c bc3d
00000020: 8843 9ebd 8659 b2bd 189b f1bd cedd dfbd
00000030: 20fd 1c3d c67f d03d 804b 05bd c02f f0bd
00000040: 10ab bcbc 20fd 423d ea3a 9c3d 00f8 4139
00000050: 0460 ddbd 3464 36bd 8010 cb3d c4f4 37bd
00000060: a08a 12bc 2c32 aebd b8b5 963d 647a ed3d
00000070: 002e bfba 6e7f b0bd 8841 d13c c056 c6bb
00000080: 485c c7bd 2097 b3bb c8cf 463d a475 bd3d
00000090: 043c d83d 6012 c3bb e015 afbc 7072 24bd
000000a0: 004f 683d 74a6 cc3d 10a9 febd 60a6 7fbd
000000b0: 3a8d 92bd 5896 c23d f88c a3bd 40fc 033c
000000c0: 4c7d 473d 0ca2 9c3d 52c5 b13d 8071 56bc
000000d0: 8431 a5bd b061 a2bd 8062 c1ba 2239 f2bd
000000e0: e080 d03b 1802 a93c 7626 b13d 8c3c 7c3d
000000f0: 3a97 8f3d 1ec7 a83d 240d 73bd f074 5fbd
00000100: 2cdb d0bd dcaf 803d f008 16bc 104d 033c
00000110: 12a4 d0bd 40b5 48bd e049 93bd 6413 b73d
00000120: 7c9f 653d 4002 d13d c4c6 3f3d 7624 e93d
00000130: c06f 06bb d2d5 ba3d 1872 d2bd c4e3 283d
00000140: 1ccd 3f3d 5c9d ce3d c4b2 a2bd 5a1e d63d
00000150: d076 1fbd 322c f63d 186d ee3d f676 f5bd
00000160: 2062 d03b f8b1 2d3d a830 d2bd 9e45 ab3d
00000170: e8c9 b3bd 8887 633d 4044 bfbc 009a a2ba
00000180: 744c e8bd bc0c 763d 1882 e2bd b880 3c3d
00000190: 740c 8a3d a09b d43b 5819 723d 30f0 5fbd
000001a0: 4664 b43d f214 e03d 34d3 f23d 2294 c53d
000001b0: 005e 3dba 40ab 313d 9eca bcbd e8f5 ccbc
000001c0: e8f3 a73c 5842 5dbd 00df 613d 742f 2f3d
000001d0: 346e 7fbd c613 cebd 623c fe3d 1448 983d
000001e0: 187c 883d 9a3b ebbd 4660 df3d ccbe 033d
000001f0: 3c6c 25bd f6cd 8fbd 72f3 9f3d ccfb 8a3d
00000200: e096 253d dc82 123d 528c ddbd 604e 713c
00000210: 50f3 32bc 2409 8bbd 462a cb3d 382f e03d
00000220: b638 8ebd 2014 54bd 581b fd3d 443c f43d
00000230: a8bb 4cbd 3cb1 0e3d a0d2 c73b 425b a03d
00000240: 48d2 adbc e83b 023d ccb8 cd3d 0273 ba3d
00000250: f2b0 8abd 127b e2bd 8e11 e2bd 5cd0 2c3d
00000260: 583c cabd 8a0f c8bd 5a62 f43d d48a 543d
00000270: 88f6 2cbd 488d 2dbd c496 7ebd d4df b6bd
00000280: 8e5a 9cbd ae74 a0bd 3e35 e13d c6a2 fb3d
00000290: c0bb 523d 2c5f bfbd 104b d13d 7c66 8c3d
000002a0: 0852 12bd dc1f 7a3d 804e 6dbb 560a be3d
000002b0: 084c 283d a27b a13d 7e91 d93d 3ee0 b0bd
000002c0: 2a0c e23d 388f c0bd 7296 bb3d 3ce5 023d
000002d0: 68fb f13d 9eee ccbd 20e7 72bd 88cf ae3d
000002e0: 0087 d83c fe2e cdbd 0878 553d 06e5 e1bd
000002f0: 4cb8 29bd 1a65 c23d 6cc1 aa3d 308b bebd
00000300: c6da 95bd 9447 4cbd 64c2 d7bd 189a fc3d
00000310: a044 503d 8068 97bc c08f 2cbc 006c 57bd
00000320: a858 b8bd a603 d03d 8ef7 c5bd fec3 a03d
00000330: 1017 733d c01e 013d f4c5 5e3d e8bb 983c
00000340: 564b 9c3d 60e8 c83c 7efa c73d ea81 aabd
00000350: 5879 0b3d c880 c13c 9809 9e3d 20e6 853c
00000360: e881 483d 1684 a53d a034 f9bb 58cc 8a3c
00000370: 305b fa3d 38b1 8fbc c6e6 c7bd 4eb3 d73d
00000380: 5e70 debd 2896 bf3d 587a 353d a889 513d
00000390: 0871 c2bc 88fe a2bc 6e4f f1bd 08a1 963c
000003a0: feb1 e43d b6bb ad3d f035 153d e4cf 8e3d
000003b0: c085 393b 989e c0bc d8e9 aebd 341c 48bd
000003c0: a081 503d dcb0 73bd 7c3d dd3d 8e5a 883d
000003d0: c0bd e9bd cceb 51bd d0eb 263d 542c bebd
000003e0: e0ec 143d 582e d43c 900a f5bc 0819 3d3d
000003f0: 045c 3dbd 1eaa e6bd 3484 f6bd a67d 873d
0.08148128 0.026500598 0.106274515 0.12096681 -0.06761743 0.12034035 0.11320087 0.09200345
-0.07727724 -0.087084815 -0.1179716 -0.10930978 0.038327336 0.10180621 -0.032542706 -0.117278576
-0.023030788 0.04760468 0.076284245 0.00018498302 -0.10809329 -0.044529155 0.099152565 -0.04491116
-0.008944184 -0.08505663 0.07358879 0.1159561 -0.0014585853 -0.08618055 0.025543943 -0.006052822
-0.09734398 -0.005480662 0.048538 0.09250954 0.10558322 -0.005953118 -0.021372736 -0.0401482
0.056715965 0.09992686 -0.1243459 -0.062414527 -0.07155843 0.09501332 -0.07985872 0.008055747
0.048703477 0.076480955 0.08680214 -0.013088584 -0.08066085 -0.07928789 -0.0014754087 -0.118273035
0.0063630193 0.020630881 0.08649914 0.06158118 0.07011266 0.082411036 -0.059338704 -0.05455488
-0.10198054 0.062835425 -0.009157404 0.008013979 -0.10187544 -0.04900098 -0.07191825 0.08939245
0.0560603 0.10205507 0.046820417 0.113839075 -0.0020513386 0.09122814 -0.10275668 0.04123284
0.046826467 0.10088608 -0.07944253 0.10455008 -0.038931668 0.12020148 0.11641902 -0.119855806
0.0063593537 0.042406052 -0.10263187 0.08362888 -0.08778745 0.055549175 -0.023347974 -0.0012405515
-0.11342707 0.06007074 -0.1105997 0.046021193 0.067406565 0.0064882785 0.0591062 -0.05467242
0.08808188 0.10941495 0.1185669 0.09647395 -0.0007223785 0.043376207 -0.09218334 -0.025019601
0.020502046 -0.05401835 0.05514431 0.042769864 -0.062360957 -0.10062365 0.12413861 0.07435623
0.06664294 -0.114859775 0.109070346 0.03216438 -0.040386423 -0.07021706 0.078101054 0.06786308
0.04042709 0.03576933 -0.108177796 0.014728159 -0.010922268 -0.06788853 0.099201724 0.10946506
-0.069444105 -0.051777005 0.12358731 0.11925557 -0.04998365 0.034836993 0.0060981065 0.07829906
-0.021218434 0.031795412 0.10045013 0.09103967 -0.06772031 -0.1105863 -0.110385045 0.042190894
-0.09874791 -0.09768589 0.119328216 0.05189021 -0.042227298 -0.042371064 -0.0621555 -0.089294106
-0.076344594 -0.07834755 0.10996483 0.12286906 0.051448584 -0.093443245 0.10219395 0.06855485
-0.035722762 0.06106554 -0.003621012 0.09279315 0.041088134 0.07884909 0.106234536 -0.08636521
0.11037476 -0.09402317 0.091595545 0.031956896 0.1181553 -0.1000645 -0.05930245 0.08535677
0.02643156 -0.10018729 0.052116424 -0.11030011 -0.041435525 0.0949194 0.083376735 -0.09303892
-0.07317118 -0.04987295 -0.10535124 0.123340786 0.050846696 -0.018482447 -0.01053232 -0.05259323
-0.09001285 0.10156946 -0.09666358 0.078498825 0.059348166 0.031523466 0.054388 0.018644288
0.07631557 0.024524868 0.097645745 -0.083255604 0.03405127 0.023620978 0.077166736 0.016345084
0.048952013 0.08081834 -0.0076051503 0.016943142 0.12224424 -0.01754056 -0.097608134 0.105322465
-0.10861276 0.09354812 0.04430613 0.05115667 -0.023735538 -0.01989676 -0.11782728 0.018387333
0.11166762 0.08483069 0.036428392 0.06973246 0.002830848 -0.023513123 -0.08540696 -0.04885502
0.05090487 -0.059494838 0.10802743 0.06657897 -0.11413145 -0.051250264 0.040752232 -0.09285799
0.036358714 0.025901005 -0.029912263 0.04616645 -0.04623033 -0.11262916 -0.120369345 0.066157624

bias f4 [32]
00000000: 18a8 2dbd e6c1 bebd 846c 5bbd 48bd d1bd
00000010: 4c67 5d3d f099 6bbd 70e9 a03d 3826 bcbc
00000020: e2e3 83bd 1065 e93d fce6 173d 4cd1 3b3d
00000030: 7067 2ebc f81e db3c 8052 303b eadd c53d
00000040: c0a5 883b 00a8 b13b 5c89 97bd 20f4 74bc
00000050: 7cd0 bebd 1c7b 65bd 28d7 40bd 0c3a 74bd
00000060: b0f4 f23d 30ae b6bd bc7b 433d 24da a23d
00000070: 6861 33bd 7402 38bd 3cb2 c03d b07b 07bd
-0.042396635 -0.09314327 -0.053570285 -0.10241181 0.05405359 -0.057519853 0.07857025 -0.022967443
-0.064399496 0.11396229 0.03708552 0.045853898 -0.010644779 0.026748165 0.0026904643 0.096614674
0.0041701496 0.0054216385 -0.07399246 -0.014950782 -0.09317109 -0.05602561 -0.04708019 -0.05962567
0.11863077 -0.089199424 0.047725424 0.07951763 -0.043794066 -0.044924214 0.094089955 -0.033076942

weight f4 [1, 32]
00000000: f336 9dbd 0eb4 813d b07e a3bd 7dc3 303e
00000010: b067 3fbd f445 f1bd e486 15bd 0047 05be
00000020: 14ec 8abd f2e0 e33d 6d52 b4bd a339 27be
00000030: 548a 133d 886e 0dbe c860 f23c 9729 9bbd
00000040: bf57 32be ae01 f53d 22ed b33d 9bc1 14be
00000050: 7795 f2bd 00b4 1bbe fbf0 14be 5401 edbd
00000060: 7694 22be 9433 fabd 59e9 07be f47d 803d
00000070: 86ba 30be a7dc 1c3e 4f5d d6bd a09b b1bb
-0.07676496 0.06333171 -0.07983148 0.17262073 -0.046729743 -0.117809206 -0.036505595 -0.13015366
-0.067833096 0.11126889 -0.08804784 -0.1633058 0.03602059 -0.13811696 0.029587165 -0.07576292
-0.17416285 0.11963211 0.08785464 -0.1452698 -0.118449144 -0.15205383 -0.14545052 -0.11572519
-0.15876946 -0.12216869 -0.13272609 0.06274024 -0.17258653 0.15318547 -0.10467016 -0.0054201633
