PDD.pth (torch, 554461 bytes, 12 tensors)

weight f4 [80]
000000 00 00 80 3f 00 00 80 3f 00 00 80 3f 00 00 80 3f
       1.0 1.0 1.0 1.0
000010 00 00 80 3f 00 00 80 3f 00 00 80 3f 00 00 80 3f
       1.0 1.0 1.0 1.0
000020 00 00 80 3f 00 00 80 3f 00 00 80 3f 00 00 80 3f
       1.0 1.0 1.0 1.0
000030 00 00 80 3f 00 00 80 3f 00 00 80 3f 00 00 80 3f
       1.0 1.0 1.0 1.0
000040 00 00 80 3f 00 00 80 3f 00 00 80 3f 00 00 80 3f
       1.0 1.0 1.0 1.0
000050 00 00 80 3f 00 00 80 3f 00 00 80 3f 00 00 80 3f
       1.0 1.0 1.0 1.0
000060 00 00 80 3f 00 00 80 3f 00 00 80 3f 00 00 80 3f
       1.0 1.0 1.0 1.0
000070 00 00 80 3f 00 00 80 3f 00 00 80 3f 00 00 80 3f
       1.0 1.0 1.0 1.0
000080 00 00 80 3f 00 00 80 3f 00 00 80 3f 00 00 80 3f
       1.0 1.0 1.0 1.0
000090 00 00 80 3f 00 00 80 3f 00 00 80 3f 00 00 80 3f
       1.0 1.0 1.0 1.0
0000a0 00 00 80 3f 00 00 80 3f 00 00 80 3f 00 00 80 3f
       1.0 1.0 1.0 1.0
0000b0 00 00 80 3f 00 00 80 3f 00 00 80 3f 00 00 80 3f
       1.0 1.0 1.0 1.0
0000c0 00 00 80 3f 00 00 80 3f 00 00 80 3f 00 00 80 3f
       1.0 1.0 1.0 1.0
0000d0 00 00 80 3f 00 00 80 3f 00 00 80 3f 00 00 80 3f
       1.0 1.0 1.0 1.0
0000e0 00 00 80 3f 00 00 80 3f 00 00 80 3f 00 00 80 3f
       1.0 1.0 1.0 1.0
0000f0 00 00 80 3f 00 00 80 3f 00 00 80 3f 00 00 80 3f
       1.0 1.0 1.0 1.0
000100 00 00 80 3f 00 00 80 3f 00 00 80 3f 00 00 80 3f
       1.0 1.0 1.0 1.0
000110 00 00 80 3f 00 00 80 3f 00 00 80 3f 00 00 80 3f
       1.0 1.0 1.0 1.0
000120 00 00 80 3f 00 00 80 3f 00 00 80 3f 00 00 80 3f
       1.0 1.0 1.0 1.0
000130 00 00 80 3f 00 00 80 3f 00 00 80 3f 00 00 80 3f
       1.0 1.0 1.0 1.0

bias f4 [80]
000000 00 00 00 00 00 00 00 00 00 00 00 00 00 00 00 00
       0.0 0.0 0.0 0.0
000010 00 00 00 00 00 00 00 00 00 00 00 00 00 00 00 00
       0.0 0.0 0.0 0.0
000020 00 00 00 00 00 00 00 00 00 00 00 00 00 00 00 00
       0.0 0.0 0.0 0.0
000030 00 00 00 00 00 00 00 00 00 00 00 00 00 00 00 00
       0.0 0.0 0.0 0.0
000040 00 00 00 00 00 00 00 00 00 00 00 00 00 00 00 00
       0.0 0.0 0.0 0.0
000050 00 00 00 00 00 00 00 00 00 00 00 00 00 00 00 00
       0.0 0.0 0.0 0.0
000060 00 00 00 00 00 00 00 00 00 00 00 00 00 00 00 00
       0.0 0.0 0.0 0.0
000070 00 00 00 00 00 00 00 00 00 00 00 00 00 00 00 00
       0.0 0.0 0.0 0.0
000080 00 00 00 00 00 00 00 00 00 00 00 00 00 00 00 00
       0.0 0.0 0.0 0.0
000090 00 00 00 00 00 00 00 00 00 00 00 00 00 00 00 00
       0.0 0.0 0.0 0.0
0000a0 00 00 00 00 00 00 00 00 00 00 00 00 00 00 00 00
       0.0 0.0 0.0 0.0
0000b0 00 00 00 00 00 00 00 00 00 00 00 00 00 00 00 00
       0.0 0.0 0.0 0.0
0000c0 00 00 00 00 00 00 00 00 00 00 00 00 00 00 00 00
       0.0 0.0 0.0 0.0
0000d0 00 00 00 00 00 00 00 00 00 00 00 00 00 00 00 00
       0.0 0.0 0.0 0.0
0000e0 00 00 00 00 00 00 00 00 00 00 00 00 00 00 00 00
       0.0 0.0 0.0 0.0
0000f0 00 00 00 00 00 00 00 00 00 00 00 00 00 00 00 00
       0.0 0.0 0.0 0.0
000100 00 00 00 00 00 00 00 00 00 00 00 00 00 00 00 00
       0.0 0.0 0.0 0.0
000110 00 00 00 00 00 00 00 00 00 00 00 00 00 00 00 00
       0.0 0.0 0.0 0.0
000120 00 00 00 00 00 00 00 00 00 00 00 00 00 00 00 00
       0.0 0.0 0.0 0.0
000130 00 00 00 00 00 00 00 00 00 00 00 00 00 00 00 00
       0.0 0.0 0.0 0.0

weight_ih_l0 f4 [384, 80]
000000 75 7c 99 bd 6c 84 ce 3c 39 4a 8e bd 5f ed ab 3d
       -0.074944414 0.025209628 -0.069477506 0.08394884
000010 26 fb 83 bd 80 64 91 3d 49 0e 95 bd ce 41 39 bc
       -0.06444387 0.07099247 -0.07278115 -0.011307193
000020 1d 67 20 bd e7 3b 03 3d cd 3e df 3c 7e 94 16 3c
       -0.039160836 0.03203955 0.027251625 0.009190677
000030 d0 c8 93 3d 19 08 74 3d 3e 68 d7 3d 63 73 3c bc
       0.07216036 0.059578035 0.105179295 -0.01150212
000040 09 0c a4 39 8f 04 d2 3d cd 3a cc 3d b6 13 b6 bd
       0.00031289484 0.10254776 0.09972153 -0.08890478
000050 34 a7 6f bd f3 9d e2 bd 8d a6 d5 3c ed a3 91 bd
       -0.058509067 -0.11065283 0.026080394 -0.071113445
000060 71 64 e3 3c 00 b9 8d 3d d1 54 e0 bc aa a2 17 be
       0.027757855 0.069200516 -0.027384194 -0.14808145
000070 b4 6b 2f 3d 4f 4f cf bc fc 1a a0 3c b9 97 9a bd
       0.042827323 -0.025306372 0.019544117 -0.0754847
000080 28 33 13 3d 18 ee 4f bd a5 cb f4 bd d6 56 4b bd
       0.03593746 -0.050764173 -0.119529046 -0.04964336
000090 4c ec b9 3a 4a b1 9c bd 3b 77 95 3d 38 78 9d 3a
       0.0014184802 -0.07651003 0.07298132 0.0012013977
0000a0 21 78 3d bd 31 31 b3 bc ed ec 01 be 2c 88 dd 3d
       -0.046257142 -0.021874042 -0.12688036 0.10816988
0000b0 5c b0 22 3e 79 63 2f 3d 97 c5 8c bd fe 99 f8 bc
       0.15887588 0.042819474 -0.06873625 -0.030346867
0000c0 bf 30 93 3c d2 83 1f bd 28 44 17 bd 64 f4 0b 3c
       0.01796758 -0.038944073 -0.036930233 0.008542154
0000d0 8f 70 17 3d ba de a7 3d ba 7a f3 bd 1b b1 ab bd
       0.03697258 0.081967786 -0.118886426 -0.083833896
0000e0 f5 13 1f bd de 14 3e bd 1f 69 7f bd c7 c8 eb bd
       -0.038837392 -0.04640662 -0.06235611 -0.115129046
0000f0 72 49 73 3c 26 fe bc bd 37 67 35 bc e7 cf 85 3d
       0.014849054 -0.092281625 -0.011071972 0.06533795
000100 56 3e 1c bd 8b e4 5e 3d d0 bb 62 3d ca 54 4e 3d
       -0.038145386 0.054417174 0.055354893 0.05037383
000110 46 e9 86 b9 79 11 95 3d cd 2d 3a bb e3 5e 16 bd
       -0.00025732274 0.07278723 -0.0028408647 -0.036711585
000120 0d 93 24 bd 9a 90 71 3d c2 05 f5 bd a4 3a 22 3d
       -0.0401793 0.058975793 -0.11963989 0.039606705
000130 3e 1e e5 3c 2a 34 e1 bc 05 09 67 bd 66 ee 34 bd
       0.027968522 -0.027490694 -0.056405086 -0.044172667
000140 17 fd 23 3d c2 e7 aa 3d ce 33 90 3d b2 28 8a 3d
       0.040036287 0.083449855 0.07041131 0.06746043
000150 5a 40 05 3e 56 91 ea bc 02 f7 fa 3d ea 81 a1 bd
       0.1301283 -0.028633755 0.12254144 -0.07886107
000160 70 31 8d 3d d7 7c 97 3c 07 db 13 3e d9 14 c9 3d
       0.06894195 0.018492145 0.14439021 0.098184295
000170 f2 72 13 bd 79 a7 84 3d 98 97 45 bd d5 54 50 bd
       -0.035998292 0.064772554 -0.048240274 -0.050862152
000180 9d 91 84 bd 9c 0d 96 bd 86 0a e9 3d ca fa b0 bd
       -0.06473086 -0.073268145 0.1137896 -0.08641584
000190 30 e8 b9 3d 89 c3 aa 3d a5 14 25 bd e1 59 78 bd
       0.090774894 0.083380766 -0.04030289 -0.06063259
0001a0 b7 c3 56 bd 5e 0a a7 3d 38 c9 ae bc 2f e0 0a 3e
       -0.052432742 0.08156274 -0.021336183 0.13562082
0001b0 cb d5 b3 3d dc 04 59 bd 7e ab e5 3d 18 2c 0d 3d
       0.08781012 -0.05298315 0.1121435 0.03446588
0001c0 3e b5 95 3d 56 9b 3b 3c 60 a1 f2 3d 26 97 08 3e
       0.0730996 0.011450609 0.11847186 0.13338909
0001d0 39 36 71 3d 8c 14 89 3d 75 1b 97 3d ee f7 33 3d
       0.0588896 0.06693372 0.07378284 0.043937616
0001e0 31 cf 97 bd 13 4b 10 bd 37 7c d1 3d 4b 12 84 bd
       -0.074125655 -0.035227846 0.1022877 -0.064488016
0001f0 e6 50 f4 3c a6 4d a6 bd 6b 05 2b 3d e5 87 be bd
       0.029823732 -0.08120279 0.041753214 -0.093032636
000200 2e e5 cc 3d 31 a4 86 bd d9 d2 26 3d cf 5f 04 3d
       0.1000465 -0.06574286 0.040728424 0.032317933
000210 cd 81 d9 bb b4 8a 75 3d e1 f8 d9 3d 57 4f ae 3d
       -0.006637788 0.05994673 0.10643173 0.085112266
000220 ae 0d d6 3a fe fd f0 bc 16 54 24 3e fc 40 bf 3d
       0.0016330981 -0.029417988 0.16047701 0.09338567
000230 2b b0 28 bd b0 12 ee 3b 0b 1c b0 3d db 75 8b 3d
       -0.041183632 0.0072654113 0.08599099 0.068095885
000240 6c a2 1d 3c ff 07 e0 bd c8 2d 09 3d c5 69 87 bd
       0.009621244 -0.10939025 0.033490926 -0.06611971
000250 1f 5a 2f bd e7 aa d4 3c 1f 55 71 3d a4 cc 5a 3c
       -0.042810556 0.025960399 0.05891907 0.013354454
000260 dd 2b 2d 3b 28 7b 2b bd 8a b3 9e 3d fc d5 b1 3d
       0.002642385 -0.041865498 0.07749088 0.086833924
000270 1a 9c 02 3e fe 4d fd 3c c6 7e 69 3d 32 d6 0c 3e
       0.1275486 0.030920979 0.057005666 0.13753584
000280 c3 7d db bd 63 2e 0f be 1b 10 19 3b aa 80 ec bc
       -0.107173465 -0.13982539 0.0023355547 -0.028869946
000290 db d0 a8 3d a1 4b 63 bd 0f 7f 76 3c ad 6d 3a bd
       0.08242961 -0.055492047 0.015044942 -0.04551475
0002a0 ee 15 9b 3d d5 d4 06 3c c5 d5 96 bc e6 18 de bd
       0.07572542 0.008229454 -0.01841248 -0.10844593
0002b0 d3 7b 0c be e4 ee 97 bd bf fe 9f bd 99 6e 6b 3d
       -0.1371911 -0.07418612 -0.07812261 0.05747852
0002c0 7e 93 88 3c f9 df cc bd 88 93 8e bc 09 ad 6c 3d
       0.016671892 -0.10003657 -0.017404333 0.057782207
0002d0 7e 1d 11 be 65 93 60 bd 56 7a de bd b5 d0 f9 bd
       -0.14171407 -0.054828066 -0.108631775 -0.12198011
0002e0 ed 66 9b bd 19 d4 32 3d 8f f9 9b 3d 1d 5a 0e be
       -0.07587991 0.043659303 0.07615959 -0.13901563
0002f0 d2 85 af bd 5a e0 b0 bd c5 35 9a 3c c9 9e f3 bc
       -0.08570446 -0.08636542 0.018824467 -0.0297388
000300 0a 48 c6 3d b1 fc 52 bd d4 19 e6 bb 10 9e 8f bc
       0.09681709 -0.051510517 -0.007022122 -0.017531425
000310 3c dd 76 bd d9 9f b9 bb 51 6b 52 bd df 62 8c 3d
       -0.06026958 -0.0056648073 -0.051371876 0.06854796
000320 d9 ea ce 3d 97 66 32 bd ef 89 04 bd c7 46 a8 bd
       0.101033874 -0.04355487 -0.032358106 -0.08216625
000330 d0 ed 99 ba 8d 29 23 3d dd 7a 76 bd 62 26 de 3d
       -0.0011743847 0.039834548 -0.060175765 0.10847165
000340 bd 27 a0 bd 21 bd d5 bd 00 c0 cc 3c 08 5d 92 3d
       -0.078200795 -0.10436464 0.024993896 0.071466506
000350 e0 de 03 be 27 b3 19 3d af 43 79 3d 41 0d af 3c
       -0.12877989 0.03752437 0.060855564 0.021368625
000360 75 f3 8c bd 0f 9f 86 3d 95 d0 33 be d4 40 06 be
       -0.06882373 0.06573307 -0.17560036 -0.13110667
000370 42 6c be bd c7 60 29 3d 7f 2d 8f bc 6c d0 c0 3c
       -0.09297992 0.04135206 -0.017477749 0.023536883
000380 f7 ab 1e be a3 7d 91 bc 56 49 d0 bd 89 2d 0a bd
       -0.15495287 -0.017760104 -0.10170238 -0.033734832
000390 19 96 74 bc 59 37 4f ba d8 35 ac bd c8 3e 18 bd
       -0.014928364 -0.0007904671 -0.084087074 -0.037169248
0003a0 02 7c ac bd 04 e0 3e bc 0d 56 67 bd f3 69 1f 3d
       -0.0842209 -0.011650089 -0.05647855 0.0389194
0003b0 be da ba 3d 06 2a 1d 3e 07 a3 06 39 de ae cc 3d
       0.09123753 0.15348062 0.00012839968 0.09994291
0003c0 d2 af 0a be 53 ea ac 3b 5d 77 02 3c 73 7e b5 3c
       -0.13543633 0.005276957 0.007963029 0.022155022
0003d0 72 41 03 3d 85 3f 00 bd 9b b8 01 bd 2c 89 81 bd
       0.032044835 -0.031310577 -0.031670194 -0.063249916
0003e0 dd b9 d9 3d e6 0f d7 bb a2 04 75 3c 90 cc 8c bd
       0.10631154 -0.0065631745 0.014954718 -0.06874955
0003f0 d8 03 53 3c 80 09 6c 3b 28 b7 49 bd bd 40 b7 bc
       0.012879334 0.0036016405 -0.049246937 -0.022369737

weight_hh_l0 f4 [384, 96]
000000 8f 95 5a bd 7d 9d 7e bd 60 82 9b bd 3c c8 cc 3c
       -0.053365286 -0.06216191 -0.075932264 0.024997823
000010 d0 5e 28 3d 6c ac 7f bd 4e cc d4 bd 4b 9c 9b 3b
       0.041106045 -0.062420294 -0.103905305 0.004748856
000020 c4 24 12 bd 81 a2 dd bd 31 95 52 bd fa 28 a7 bd
       -0.035679594 -0.10822011 -0.05141181 -0.081621125
000030 e7 ea cf bc f7 a6 07 3d 1d b1 43 bc 04 ff 41 bc
       -0.025380565 0.033118214 -0.011944083 -0.011840586
000040 f1 8e f2 bc 27 a3 ed bd 4a fe 2a 3d 99 59 19 bc
       -0.029609175 -0.116033845 0.041746415 -0.009359741
000050 a7 8d ba bb 45 1f e3 3b 37 dd 81 3d 1b 80 02 3d
       -0.005693156 0.006931218 0.063410215 0.031860452
000060 da ed 05 bd cb 38 45 3d 22 0c a5 bd 42 a1 cd 3a
       -0.032697536 0.048149865 -0.08058955 0.0015688317
000070 b8 9d bd bd 29 58 0e bd 06 0d 83 bd 41 df 89 3d
       -0.09258598 -0.034752045 -0.063989684 0.067320354
000080 70 4b b7 bd f4 5c 8b 3c 51 58 92 bd 5b 58 87 3d
       -0.089499354 0.017012097 -0.07145751 0.06608649
000090 5f 8b 8a 3c 2a b5 72 3c 9c 6b 07 3e 45 f2 7b bd
       0.01691216 0.014813701 0.13224643 -0.061510343
0000a0 33 bf 2b bd 1f e0 c6 bd 5a b3 ba bd d2 8a 83 3d
       -0.04193039 -0.097107165 -0.0911624 0.06422962
0000b0 a4 ca 1d be ae 28 ea 3d 9c be 81 3a a0 00 b7 bd
       -0.15409333 0.1143354 0.0009898725 -0.08935666
0000c0 a5 00 f6 3c ad 19 cb bd b8 45 e0 3c d1 46 13 3e
       0.030029604 -0.09917007 0.027376994 0.14382483
0000d0 65 a6 52 bd 2f d5 7a 3d 6e 4d 90 bd ea 2b c0 bd
       -0.051428217 0.061238464 -0.070460185 -0.09383376
0000e0 81 8a b8 3d fe af 99 bd 81 ee e4 3d e0 6a 9b bd
       0.090107925 -0.07504271 0.111783035 -0.07588744
0000f0 bd 3d 4b 3d 22 36 6a bd 68 fd 8c bc d7 b5 5a bd
       0.049619425 -0.05718053 -0.017210677 -0.053396072
000100 c7 f5 b6 3d b9 36 db bb a0 f2 b8 3d c5 de 13 bd
       0.08933597 -0.006689873 0.09030652 -0.03610112
000110 c3 e6 9c bc c3 a2 e1 3c e7 c9 ae 3d 66 69 60 3d
       -0.019153005 0.027543431 0.085346036 0.054788016
000120 d6 94 44 3c 91 ba 74 bd 05 ce 64 bc 27 7e 9c 3d
       0.011998376 -0.059748236 -0.0139651345 0.07641249
000130 17 ae 4e 3d a6 c2 2c bd 38 3f a8 bd e4 c4 49 bd
       0.050458994 -0.04217782 -0.08215183 -0.049260035
000140 67 87 c4 bc 33 5b 8e bd d9 0f 9f bd c3 07 a7 3d
       -0.023990346 -0.069509886 -0.077666946 0.08155777
000150 dc 79 0c 3d d0 6e d5 bc d9 db 89 bd d3 2c 57 3c
       0.0342959 -0.026053816 -0.06731386 0.0131332455
000160 79 2a 70 3d 24 cc 6f bd e9 8b 6e bc 54 d1 54 3d
       0.058634255 -0.058544293 -0.014559724 0.051957443
000170 ba 36 5c 3c c1 58 d0 bd 18 f6 c6 3b ed 1d 03 3b
       0.013440782 -0.101731785 0.006071817 0.002000685
000180 a3 02 ce bd 43 6f f5 3d fc 09 a2 3d e8 20 cd bd
       -0.10059097 0.11984112 0.079120606 -0.10016042
000190 8b e0 a4 3d f0 6e 7c bd 5e ad dc 3c 8b 0c 97 bd
       0.08050641 -0.061629236 0.026938137 -0.07375439
0001a0 1f b1 5c 3c e0 02 1b bd 0c 1d c4 bd 69 b7 36 be
       0.013469963 -0.03784454 -0.09575853 -0.17843403
0001b0 08 59 ca 3d 03 2e 4e bc 26 ab 9d 3d 2c 23 1e bd
       0.098802626 -0.012584212 0.076986596 -0.03860776
0001c0 52 f5 08 bd 4f 15 b6 3c 4a 1f 7d 3d 59 dc d3 bd
       -0.03343708 0.022226958 0.061797418 -0.10344762
0001d0 24 19 4d 3c 13 89 2e 3d 82 90 a1 bd 80 df c9 3a
       0.012518201 0.042611193 -0.07888891 0.0015401691
0001e0 69 d5 38 3e 46 5e 9f 3d 4d 0e 33 3d 13 46 34 bc
       0.1805016 0.07781653 0.04371481 -0.011003035
0001f0 4f d9 09 3c 1d 11 6c 3d 6b 2b c1 3d d8 cd 6c 3d
       0.008413627 0.057633508 0.094321094 0.057813495
000200 cc b3 8b bd 28 2b a1 bd 8f ff 2d bd bf d6 1c 3d
       -0.06821403 -0.078695595 -0.042480048 0.038290735
000210 15 65 12 bc a5 f6 ce 3d cd fb 52 3e 01 31 3e bb
       -0.008935233 0.101056375 0.20603867 -0.0029020908
000220 79 22 c8 3c 27 b8 43 3d 21 8f 3e be be 10 0a be
       0.0244305 0.047783043 -0.18609287 -0.13482949
000230 6d e1 b9 bc cf 00 51 bd 4d 08 bd 3d 2a f3 d3 bd
       -0.0226905 -0.05102616 0.09230099 -0.10349114
000240 72 52 86 bc aa 80 66 3c 46 b3 1a 3d 34 57 dd bd
       -0.016396735 0.014068762 0.037768625 -0.10807648
000250 b2 64 cd 3d 36 c7 89 bd 6a 8a 63 3c cc 1b bb 3d
       0.10028972 -0.067274496 0.013887981 0.09136161
000260 b9 58 cf bd a6 70 04 3e a3 2c 77 bc 93 d0 a3 bb
       -0.101243444 0.12933597 -0.015086326 -0.004999229
000270 20 89 84 bb 64 cc 9b bd c9 0c 51 3d de 2d 8a bd
       -0.004044667 -0.07607344 0.051037584 -0.0674703
000280 b5 bc 8c 3d 5b 2c aa bd 15 18 f5 bc 55 41 de 3d
       0.068719305 -0.083092414 -0.02991871 0.10852305
000290 a0 52 6b ba f2 6c a3 3d 0f 89 c1 bd 1f 37 d5 3c
       -0.00089768507 0.07979764 -0.0944997 0.02602726
0002a0 c4 e3 4d bd 4d e1 00 3e 15 60 e6 3d 05 a8 5b 3d
       -0.050266042 0.12585945 0.11248795 0.053627033
0002b0 fe ac 06 3e c5 81 e5 bd 86 07 f7 bc 8f 6a f6 3d
       0.13151929 -0.11206392 -0.030154955 0.12032043
0002c0 a2 0f 4c 3d 96 59 61 3b 86 c9 11 3e 67 5c 08 3e
       0.049819596 0.0034385673 0.14237031 0.13316499
0002d0 c9 e0 5d 3c 49 b1 0b 3d 1e 48 55 3d 36 37 99 bc
       0.0135423625 0.03410462 0.05207073 -0.018703084
0002e0 52 44 ae 3d a4 6e 09 bb ed 25 3e 3c fe a7 b4 bc
       0.08509125 -0.0020970488 0.011605722 -0.022052761
0002f0 45 fe 10 3e c4 d9 97 bd 7f a1 43 bd 85 17 86 bd
       0.14159496 -0.07414582 -0.047761437 -0.06547455
000300 71 01 0d 3d 06 56 1c 3d 25 58 15 be ca 2e 17 3e
       0.034425203 0.038167976 -0.14584406 0.14763942
000310 ce 55 78 bd 3a 5e 3d 3c fa 30 d9 3b 17 ef 95 bd
       -0.060628705 0.01155811 0.006628153 -0.073209934
000320 05 5f 45 3e 9d 3b 87 3c a7 2f 26 bd e6 1f 50 3c
       0.19274528 0.016507918 -0.04057279 0.012702918
000330 a9 ae 82 3c aa 2a 6e 3d 45 9f f7 3d e4 79 29 be
       0.015952425 0.058146156 0.12090925 -0.16550404
000340 08 dc 1e 3e 00 58 e4 bb b2 cc 1e 3d 88 08 30 bb
       0.15513623 -0.006968498 0.03876943 -0.0026860554
000350 75 45 24 3e 34 58 8b 3d 66 c0 91 bc 4b 3e 3d bd
       0.16042121 0.06803933 -0.017791938 -0.046201985
000360 f3 87 a1 bd f9 06 85 3d 48 75 bb 3d 85 06 4e bd
       -0.078872584 0.064954706 0.09153229 -0.050299186
000370 5b 57 1c 3e 8b b0 ad 3d ef 37 8b bc 0e 90 27 3d
       0.15267698 0.084809385 -0.016994445 0.040908866
000380 38 3b 9d 3d 35 07 b6 bd ed e1 ab bc 82 27 d9 bd
       0.07677311 -0.088880934 -0.020981753 -0.10603239
000390 93 68 cd bd eb b1 55 bc ea c0 17 3c 09 31 85 bd
       -0.100297116 -0.013042907 0.009262303 -0.06503493
0003a0 9a 54 83 bd eb dc e5 3d 57 5c 72 3c 35 cb 20 be
       -0.06412621 0.112237774 0.014792523 -0.15702517
0003b0 7b 0d 16 bd 6c ef 4e bd 08 3f 81 bc 3a ae a2 bb
       -0.03663395 -0.0505213 -0.015777126 -0.004964617
0003c0 27 a0 a5 3d f3 23 84 3d 1f e4 1b bd 4f f4 46 be
       0.08087187 0.06452169 -0.03805935 -0.19429134
0003d0 23 63 28 3e 14 05 9c bd d1 24 28 3b b5 e1 98 3d
       0.16444068 -0.07618156 0.002565671 0.07464925
0003e0 42 2a 8f bd ef 24 09 ba 0f 39 4a 3d 23 5e ab bc
       -0.06990482 -0.0005231639 0.04937082 -0.020918911
0003f0 b7 5d 2a 3e 1c b8 98 bc 4a b6 1d bd 42 1a dc 3d
       0.16637312 -0.018642478 -0.038503923 0.10747196

bias_ih_l0 f4 [384]
000000 81 6c 34 bd 4a 03 cf 3d 84 ed 3f 3e c0 07 3c 3e
       -0.04404879 0.10108049 0.18742949 0.18362331
000010 39 af bf 3d 96 75 95 3d fd 87 be 3d 38 a7 e4 3d
       0.09359593 0.07297818 0.093032815 0.11164707
000020 ad 77 7f 3d 99 80 57 bd 38 93 01 3e e9 57 ea 3c
       0.06236999 -0.052612875 0.12653816 0.028606372
000030 e3 f2 85 3d 71 1c 63 3c 4d 5d d3 3b 8f 00 af bc
       0.065404676 0.013861761 0.0064503313 -0.021362571
000040 ba f8 3b 3e 1b de 76 3d b2 88 69 3c 93 a2 c3 3d
       0.183566 0.06027041 0.014253782 0.09552493
000050 e7 7a 26 3e 86 35 0f 3e 57 9a 40 3e f9 51 d6 3d
       0.16257821 0.13985261 0.18808876 0.10464854
000060 78 0c 92 3d 5f 58 af 3d cf a7 09 3e fc 2d 12 bd
       0.071312845 0.08561777 0.1344292 -0.035688385
000070 37 3a 11 bd 1c c7 46 3d b3 f9 e0 bc 59 14 7e 3d
       -0.03545591 0.04852973 -0.027462816 0.062031124
000080 db 43 74 3e 1f ee e4 3d 66 6c e7 3d 12 2f 07 3d
       0.2385401 0.111782305 0.11299972 0.033003874
000090 53 62 a1 3d 83 47 ec 3d db 16 df 3d 11 ee f8 3c
       0.07880082 0.11537077 0.10893031 0.030386956
0000a0 e0 e9 9b 3d 1f bc a1 3d b3 c9 65 3d c6 f6 9e 3d
       0.076129675 0.078972094 0.05610056 0.07761912
0000b0 f3 eb 65 3e 13 46 eb 3c 30 e4 2d 3e 40 d5 a0 3c
       0.22453289 0.028719937 0.16981578 0.019632936
0000c0 b5 26 66 3e 63 c7 de 3c 1e 88 cc bc 56 eb 73 3e
       0.22475703 0.027194684 -0.02496725 0.23820242
0000d0 21 5b 9f bd 1c 0d 9e 3d b3 09 e6 3d 67 06 c8 3d
       -0.07781053 0.07717344 0.11232319 0.09766846
0000e0 02 61 26 bd f3 3b 8d 3d f9 97 56 3d c7 63 1a 3e
       -0.040619858 0.068962 0.052391026 0.15077125
0000f0 7b cf 22 3e e5 21 49 3e ae d4 8d 3d 1b 2a 81 3d
       0.1589946 0.19641836 0.06925331 0.06306859
000100 2c 5d 73 bd 0a 7e 03 bb 2e 02 1f 3e 82 4c fb 3d
       -0.059415027 -0.0020064139 0.15528175 0.12270452
000110 70 9b e7 3d f9 52 19 3d e5 f6 21 bd e6 99 55 3b
       0.11308944 0.037432645 -0.039542098 0.0032592951
000120 ed 49 81 3d 4d dd 93 3d 90 f9 8e 3d 08 c2 4b 3d
       0.06312928 0.07219944 0.06981194 0.04974559
000130 13 a6 ff bb 34 ed 08 3e 02 a8 20 3e a1 b3 05 3e
       -0.00780178 0.13371736 0.1568909 0.13056804
000140 99 0f 1d 3e f2 c6 1a 3e 68 bc 97 3d b9 e6 43 3c
       0.15337981 0.15114954 0.074089825 0.011956864
000150 8a b8 e9 3c f7 32 db 3c 5b 8a 02 3e b7 05 bb bc
       0.028530378 0.0267577 0.12748091 -0.022829873
000160 5e 2e 90 3d e4 d1 5f bd 15 5f 6f 3c c0 0b 0c 3e
       0.07040094 -0.054643527 0.014610072 0.13676357
000170 9f f5 1f 3e be fa 09 3d 6f b1 17 3e 0a 7f 81 3d
       0.15621041 0.033686392 0.1481378 0.06323059
000180 13 51 13 bb df da 3d 3d 73 78 c0 bd 69 1c 74 3d
       -0.0022478744 0.04635131 -0.09397974 0.059597407
000190 51 eb 5f 3d 9f 87 eb bc 75 d1 db 3c dd ed d8 3d
       0.054667775 -0.028751193 0.026833275 0.10592244
0001a0 26 63 d8 3d e4 1c c6 3d a3 1f 60 bd 95 8d 0e 3c
       0.10565786 0.09673479 -0.05471767 0.008700748
0001b0 2a 33 c4 bc 6e 0c 36 3d 82 59 99 bd 01 7f cf bd
       -0.023950178 0.044445448 -0.074877754 -0.10131646
0001c0 06 e4 b2 3d ad 9a 87 3c 8d c1 91 bd 6b 40 de 3d
       0.08734898 0.016553247 -0.07116995 0.108521305
0001d0 be 04 62 bd 6c a4 49 3d d4 bd c4 3d aa c9 05 3e
       -0.055180304 0.04922907 0.09606519 0.1306521
0001e0 01 9f 59 3d 72 bc 68 3c a8 17 a0 3d a7 5d 81 bc
       0.053130154 0.014205085 0.07817012 -0.015791727
0001f0 2e 1c 94 bd 39 d7 6e bd fe 03 1f bc b6 b4 20 bd
       -0.07231937 -0.05831072 -0.009705542 -0.03923484
000200 1b 6f 6a 3c a3 ae b6 bd 36 ae 13 3d ce 19 34 3d
       0.014308716 -0.08920028 0.036054812 0.04396992
000210 30 ed 9b 3c e5 ff 7d bd 7f 8f a0 39 a2 21 4f bc
       0.019033998 -0.06201162 0.0003062449 -0.012642296
000220 32 d3 8c 3c cd f2 36 bd 8b c5 bd 3c 6b e8 b5 bc
       0.01719055 -0.044665147 0.023165485 -0.022205552
000230 37 59 5f 3e b7 06 8d 3c 9c 2d 87 bd 6a fe 9d bd
       0.21811377 0.017215116 -0.06600496 -0.07714541
000240 5a b1 8f 3d e4 5f e8 3d 24 23 09 3d 78 d7 b6 bc
       0.07016249 0.11346415 0.03348078 -0.02231954
000250 18 3b b9 bc 2e 24 e8 bd 5e a5 ec bc 8a 1f a7 bd
       -0.022611186 -0.11335026 -0.028887447 -0.081603125
000260 56 6a ae 3d dd a6 ec bd 2d 0d 64 3d c8 40 3a 3d
       0.08516376 -0.11555264 0.055676628 0.045471936
000270 fa 52 81 3d 5d 3c 7c 3d 65 ce bb 3d 6c ca 0a 3d
       0.06314655 0.061581004 0.09170226 0.03388445
000280 48 58 cb 3d db a1 df bc 2f e1 12 bd ad 87 22 bd
       0.09928948 -0.027298858 -0.035859283 -0.03968017
000290 aa 20 a4 3d 22 1c 95 bd 4d 25 54 bc b8 a3 0f 3d
       0.08014043 -0.072807565 -0.012948346 0.035068244
0002a0 23 4e e9 bc 05 a7 23 3d b2 07 8d 3d 99 91 47 3c
       -0.028479641 0.039954204 0.068862334 0.012180709
0002b0 ff 9f f9 3c 8b 17 e3 bb ef 52 20 3d bf d6 72 bd
       0.0304718 -0.006930297 0.03914159 -0.05928683
0002c0 34 b8 7a bd f7 be 3d 3d 9a 65 17 bc 46 7a 90 3d
       -0.061210826 0.046324696 -0.009240532 0.07054572
0002d0 87 86 b9 3d 9e 35 94 bd f9 47 81 bb 9e 74 a2 3d
       0.09058862 -0.07236789 -0.0039453474 0.07932399
0002e0 4f 1b fb 3c d2 df 68 3d ab d2 cd 3d ee d9 45 3d
       0.03065267 0.056854077 0.10049947 0.048303537
0002f0 ea f4 45 bd 0e fe 66 3c 42 a2 bc 3c 77 26 ac 3d
       -0.04832927 0.014098657 0.02302659 0.08405774
000300 50 ca c9 bc 64 d8 60 bd 43 16 db bd 99 bb f6 bd
       -0.024632603 -0.054893866 -0.106976055 -0.120475
000310 b5 3d 78 3d ff 2c 33 bd bd f3 df bd d8 9e c0 bd
       0.060605723 -0.043744083 -0.10935161 -0.09405297
000320 5c 76 81 bd 46 3d e9 3c c1 0f ad bd b4 78 9e bd
       -0.063214034 0.0284716 -0.084502704 -0.07737866
000330 1a 1e 4a bd 7f 23 c0 3d 37 2d 8f 3d dc 17 96 bd
       -0.049345113 0.0938177 0.06991046 -0.073287696
000340 dd 3a 72 3d af 40 ea bd ea a4 8a bd 2e 54 5c 3d
       0.059138168 -0.11438119 -0.06769736 0.053791218
000350 75 49 c3 bd 70 44 d3 3d f9 6f 25 bd 1c b8 8a 3d
       -0.09535495 0.10315788 -0.04038999 0.06773397
000360 fa 55 e3 3d 78 97 ce 3d 63 f8 8b 3d 98 db c2 3d
       0.11100383 0.10087484 0.068344854 0.095145404
000370 47 a4 93 3d 7f e5 c2 3d 22 da e1 bc e7 c7 da 3d
       0.07209068 0.09516429 -0.027569834 0.106826596
000380 3e e5 7e 3c 60 7d ad bd 15 48 6c bd c6 01 1b bd
       0.015557585 -0.08471179 -0.05768593 -0.03784349
000390 10 87 b2 bd 69 96 0e bd 0a 89 fb 3c ac c8 72 bc
       -0.087171674 -0.03481141 0.030704994 -0.014818352
0003a0 cb fb ba bd a1 5c 9e 3d 56 87 cd bd dd c0 ee bd
       -0.09130057 0.07732511 -0.10035579 -0.116578795
0003b0 7b 0a 5a bd 20 a5 9b 3b 55 aa 0c bd f4 77 df bd
       -0.05323265 0.004749909 -0.03434213 -0.10911551
0003c0 58 8e c3 3d 3b f7 13 3d 82 91 90 3d e4 66 80 3d
       0.09548634 0.03612445 0.070590034 0.06269625
0003d0 d1 c9 31 bc 26 a4 ab bd b1 b8 3f bd 4b 17 b6 3d
       -0.010851339 -0.08380918 -0.046806995 0.088911615
0003e0 f2 fa 40 bd 16 c0 aa bd 5d 85 c3 bd da f1 86 3d
       -0.04711432 -0.08337419 -0.095469214 0.06589098
0003f0 d0 b3 d9 3c e9 44 69 bd 1a bc 95 3d d2 b0 64 3c
       0.026575 -0.056950483 0.07311268 0.013958173

bias_hh_l0 f4 [384]
000000 d0 ca 96 3d 28 4f 0a 3e 74 24 09 3d e6 8b 6e 3d
       0.07362902 0.13506758 0.03348203 0.058238886
000010 5c 9b 4c 3b c8 82 c1 3d 98 85 02 3e e6 e1 bb 3c
       0.003122053 0.09448773 0.12746274 0.022934865
000020 f9 63 a0 3a 4c 9a bb bb 00 d5 29 3e 95 2c 43 3d
       0.0012236825 -0.0057251807 0.1658516 0.04764994
000030 a3 e8 ae bc f1 66 a4 3d 44 e4 2c 3e c7 43 f1 3d
       -0.021351164 0.08027447 0.16883951 0.117805056
000040 f6 3a e4 3d fc 6f c4 3c 9d 4f 24 3e 3f 1e 8e 3d
       0.111440584 0.02397918 0.16045995 0.06939363
000050 62 fd 75 3d 1d 09 be bc 2f 75 33 3e 1a d1 c6 3d
       0.060056098 -0.023197705 0.1752517 0.09707852
000060 8c 1e 0d 3e 75 6f 0c bc e8 d7 a6 3d ee 21 8a 3d
       0.13781184 -0.008571495 0.081466496 0.06744753
000070 98 1f 48 3c 7f 2a 1c 3e a9 57 c7 3c 7e e5 91 3d
       0.012214564 0.15250586 0.024333792 0.0712385
000080 63 7d dc 3d 77 fe 04 3e 7e 5a 29 3e d5 46 22 3d
       0.10766103 0.12987696 0.16538426 0.039618332
000090 5e dd 07 3e e2 55 1d bc 05 bc 78 3e d3 af 0d 3c
       0.13268039 -0.009602996 0.24290474 0.008647877
0000a0 41 ae ec 3d 05 62 18 3e 6f be d2 3d 7d 80 8a bc
       0.11556674 0.14881141 0.102902286 -0.016906971
0000b0 b7 44 91 3d 7b 6a 88 bc ff dd 18 3e 99 fb d2 3d
       0.070931844 -0.016652336 0.14928435 0.10301895
0000c0 e6 c0 22 3e af df 49 bd 4d ec 13 3e 94 ec 86 3d
       0.15893897 -0.049285587 0.1444561 0.065880924
0000d0 25 69 ae bd 7d 58 3e 3d 36 18 a6 3c 29 0d 89 3c
       -0.085161485 0.046471108 0.020275217 0.016729908
0000e0 3b c7 1b 3e 47 89 34 3e 19 09 0b 3d c5 59 a0 3d
       0.15212719 0.17630492 0.033944223 0.07829622
0000f0 37 0a 2a 3e 91 9b 2a 3e 49 58 95 3d 84 03 06 3e
       0.16605459 0.16660906 0.0729223 0.13087279
000100 18 87 84 3d ef 70 2f 3e cb db 32 3e e2 73 fe bc
       0.064710796 0.17132924 0.17466657 -0.031061117
000110 ef fe d0 3d 30 24 0a 3d a6 42 a5 3c 28 97 77 3b
       0.10204875 0.033725917 0.020173382 0.0037779305
000120 13 07 a5 3c d9 61 cd 3d 1c da 0c 3e b3 95 0a 3e
       0.020144975 0.100284286 0.13755077 0.13533668
000130 e1 e5 1e bd f9 b3 32 3e f1 f2 99 3d 16 47 bc 3d
       -0.03879345 0.17451467 0.075170405 0.09193246
000140 ff e9 35 bd c1 32 cd 3d 4f 5b dd bc 30 11 06 3e
       -0.04441261 0.10019446 -0.027021078 0.13092494
000150 9e 0d 13 bd 35 4f 9a 3d 9b 3c 4b 3e 27 b5 e1 3d
       -0.03590166 0.07534639 0.19847338 0.1102088
000160 d0 27 11 3e 23 c0 41 3d 52 3e 11 3e e5 b4 6e 3d
       0.14175344 0.047302376 0.1418393 0.058277983
000170 89 fa 2c 3e 7d be 82 3c 1e 0b c8 bc c6 03 cf 3d
       0.16892447 0.015959973 -0.024419364 0.101081416
000180 a0 25 ae 3d aa 31 89 bd aa 9c 84 3c 77 67 8d bd
       0.0850327 -0.06698926 0.016187984 -0.069045
000190 d5 28 2f bd e6 43 aa 3d 56 92 31 3c 2d d6 e4 3d
       -0.04276355 0.08313732 0.010838112 0.11173663
0001a0 9c 80 f7 3d 7a cc 4c bd 29 54 03 3d 74 63 94 3d
       0.12085077 -0.04999969 0.032062683 0.07245532
0001b0 ed 8d 85 3d dc d5 34 3d 98 ff 1e bd 06 00 7d 3d
       0.06521211 0.044149265 -0.038817972 0.0617676
0001c0 b2 be 80 3d 95 e9 af bd da 69 3f bb c7 2d de 3d
       0.06286372 -0.08589474 -0.002920738 0.10848575
0001d0 ea b8 f2 bc 71 b4 80 bc b5 2b 8c bd 3f 3d 9b 3d
       -0.02962919 -0.015711041 -0.06844274 0.07580041
0001e0 72 d4 1c 3d 1b 20 bf bc 1f dc da bd 88 63 bd 3d
       0.03828854 -0.023330739 -0.10686516 0.092475
0001f0 a5 ca b1 3c 22 c4 3b 3d 9a fc 8f bc 9c ce c3 3d
       0.021703074 0.045841344 -0.017576504 0.09560892
000200 42 1e ac bd b1 d8 cd 3d 35 c3 e9 3d 16 3d f5 3c
       -0.08404209 0.10051096 0.11414186 0.029936355
000210 4c 21 e6 3c 60 06 61 3d 5c c6 ee bc a3 cd 9a 3d
       0.028092049 0.05493772 -0.02914732 0.07558753
000220 37 1b bc bc 61 72 f8 bd 3e f2 ac bd 03 72 14 3d
       -0.022962196 -0.12131191 -0.084446415 0.036241543
000230 ef cb b2 3d 5f 7c 7c bd 60 66 ed 3c 1f ee d1 bd
       0.087303035 -0.061642047 0.02897948 -0.10250496
000240 49 37 61 3d 03 33 d0 ba bf ab 97 3b 56 d4 f7 bd
       0.054984365 -0.0015884343 0.004628628 -0.12101047
000250 ca e6 1e 3d 19 42 29 bd 38 33 50 bd 08 cd 7f 3d
       0.038794316 -0.0413228 -0.050830096 0.062451392
000260 7b bb a3 3d 5e c2 c2 ba 93 ad 02 3d 4a 22 d4 3c
       0.079947434 -0.0014858951 0.031903815 0.025895257
000270 4d 8b a3 3d b3 a7 0c bd 01 de 25 3d 74 8a cb bc
       0.07985554 -0.034339618 0.040494923 -0.024846293
000280 49 ce da 3d 9f 1c 94 3c 6a c9 1c bd a5 d1 f5 bb
       0.10683877 0.018080054 -0.03827802 -0.007501798
000290 06 50 7e 3c f8 f5 9d 3d 7d dc 45 3d 49 61 9f 3d
       0.015522009 0.077129304 0.048305977 0.077822275
0002a0 c6 5e 82 bc 22 6b 6e 3d 61 7d 8a bd dd 90 98 bb
       -0.015914332 0.05820764 -0.067621954 -0.004655941
0002b0 99 4c 15 3c 83 33 af 3d 79 de 01 3c 6e ad 9a 3d
       0.009112501 0.08554747 0.007926577 0.0755261
0002c0 0f 5f aa bd 3e 20 01 bd d4 b3 82 bd 07 57 54 3c
       -0.08318912 -0.03152489 -0.06381956 0.012960202
0002d0 f2 b9 47 bd 67 c7 6c bd fe 7a 56 bd 84 9e 09 3e
       -0.048761316 -0.057807352 -0.05236339 0.13439375
0002e0 9f 3a 07 3e eb ea af 3c e4 4e 12 3d 86 5d 92 3c
       0.13205956 0.021474322 0.035719767 0.017866861
0002f0 61 0b 81 bd 44 64 92 bd 86 40 d0 bc 4d 1c ac 3d
       -0.063009985 -0.071480304 -0.025421392 0.084038354
000300 ba fb 92 bd 3c 43 01 bd 24 bc 78 3c 58 7c ad bc
       -0.07176919 -0.03155826 0.015181575 -0.021177456
000310 d2 ce a3 bd 4a 7d b4 bd 16 d3 c8 bd 0e 96 65 bd
       -0.07998432 -0.088129595 -0.098058864 -0.056051306
000320 e8 e2 c7 3d f8 de f5 3d 9e 01 b7 3a de e5 aa bd
       0.09760076 0.120054185 0.0013962274 -0.08344625
000330 78 89 92 3d 82 c5 a1 3c b3 67 6d 3d 86 20 02 be
       0.07155126 0.0197475 0.057960223 -0.12707719
000340 b7 fc 12 3e d9 00 2a 3d f4 76 bc 3d ae c6 aa bd
       0.14354216 0.041504715 0.09202376 -0.083386764
000350 61 d4 74 bc 4f 4b 3a 3c 53 1b 8f 3c 1b 7b 0d bd
       -0.014943213 0.011370494 0.017469084 -0.03454123
000360 8c 2d 63 3c cd 38 94 bc 91 bd b2 bc 90 fd 39 3d
       0.01386584 -0.018093491 -0.021818908 0.04540783
000370 c1 43 ba 3c b9 43 e5 3c 32 56 8e 3d df b1 f4 3d
       0.022737386 0.027986394 0.06950034 0.11947989
000380 62 34 2b 3d 16 6c a4 bc 4a 51 be bd b7 bb 90 bd
       0.041798003 -0.02007107 -0.092928484 -0.07067054
000390 b8 26 8a 3b d3 ea cb 3d 66 e4 a6 3d 63 f0 b4 bd
       0.0042160414 0.099568985 0.08149032 -0.08834913
0003a0 c0 f1 95 3d 20 ff 38 3d 44 08 97 bc b1 df 42 bd
       0.07321501 0.04516518 -0.018436559 -0.04757661
0003b0 f5 9d fc bc 02 b5 93 bd 27 6a b7 3d 8b 15 e0 bd
       -0.030837039 -0.07212259 0.08955794 -0.10941609
0003c0 00 6c 75 bd 83 b7 23 3d 38 58 27 bd 39 a4 61 bd
       -0.05991745 0.039969932 -0.040855616 -0.055088256
0003d0 28 d7 a5 3d 84 f9 3f bd d3 6a 05 ba f2 54 3d 3d
       0.080976784 -0.046868816 -0.00050894654 0.04622359
0003e0 72 4a 3d ba 79 41 f4 bc d3 d3 73 bd 8b db 3e 3d
       -0.0007220871 -0.029816376 -0.059528183 0.04659609
0003f0 f9 be 92 3d 25 00 dc bd e0 91 3c bd ee ae a8 3d
       0.071653314 -0.10742215 -0.046037555 0.0823649

weight_ih_l0_reverse f4 [384, 80]
000000 ec f1 68 bc bd fb b5 3c 8f a6 26 3e 2b d5 96 bd
       -0.014217835 0.022214765 0.16274475 -0.07364877
000010 7c 95 35 bd 56 30 1d 3d 47 d3 01 3e 34 ef ba 3d
       -0.044332013 0.038376175 0.12678252 0.091276556
000020 97 9a e9 3d 7e 45 b8 3b d6 5e 96 bc d5 92 8e 3c
       0.11406439 0.0056235185 -0.018355768 0.017404
000030 19 45 06 3d 6e 09 c4 bc 84 da 17 3c 85 e4 11 3e
       0.03278074 -0.023930278 0.009268407 0.1424733
000040 33 21 0e 3e 76 6d 03 3e f9 0f b7 bd 7a b0 c4 bc
       0.13879852 0.12834725 -0.089385934 -0.024009932
000050 86 94 0b 3d 82 9b 30 bd e9 7f 7e bd d8 4f 05 3e
       0.03407719 -0.043117054 -0.062133703 0.13018739
000060 f6 34 c9 3d 59 54 86 bd fd 19 44 bd 98 7c 58 bd
       0.098245546 -0.06559057 -0.047876347 -0.052853197
000070 8c 16 23 bb f7 ca 23 bd f3 68 cf 3d 99 01 84 bc
       -0.0024885265 -0.039988484 0.10127439 -0.016114043
000080 f6 1b 9c b9 f9 0e aa 3b 4c 3e fa 3d 0a 6c 90 3d
       -0.0002977547 0.005189773 0.122189134 0.07051857
000090 af 66 e1 bd 88 fd 0d bc 91 4d 79 3d 9c 86 9a 3d
       -0.110059135 -0.008666404 0.06086499 0.07545206
0000a0 ea b8 3b 3e 20 c2 26 3e 27 73 22 3d 70 c3 1e 3d
       0.18332258 0.1628499 0.0396606 0.038760602
0000b0 a9 2c 0f 3d 57 0a 09 3e fe b7 9f 3d dd c9 06 3d
       0.0349547 0.1338285 0.077987656 0.032907356
0000c0 22 05 a4 3d 3f 66 0b 3e aa 9c 35 bc 34 99 13 3d
       0.080087915 0.13613223 -0.011084715 0.036034778
0000d0 ff d9 5e 3d 86 51 f1 3d 03 3e 5e 3b f5 69 50 3d
       0.054407116 0.117831275 0.0033911474 0.0508823
0000e0 66 b3 04 3d 37 ca d9 3b 15 92 0b bd 91 aa 9a 3d
       0.03239765 0.0066464203 -0.03407486 0.07552064
0000f0 e2 13 7d 3c 35 e6 99 bd 58 28 1f 3d 65 83 00 3e
       0.015446635 -0.07514612 0.038856834 0.12550123
000100 21 89 2f 3e d6 87 93 3d 73 7d 7c 3d f6 81 50 bd
       0.17142154 0.07203643 0.061643075 -0.05090519
000110 2e a0 3a 3d 36 e3 a0 3a 26 99 83 bd ab a5 2a 3c
       0.045562916 0.0012274745 -0.06425695 0.010415475
000120 f0 ad b6 3d 76 ae f1 3c bb 4f 94 3d 67 1b 18 3e
       0.08919895 0.029502135 0.0724177 0.14854203
000130 82 9c 12 bd c7 7d 8f bd 9b 77 a0 3d b2 a7 a2 3c
       -0.03579379 -0.07006412 0.07835313 0.019855354
000140 d7 c7 cb bd 19 31 43 bb 37 45 f1 bc 80 83 a1 3d
       -0.09950226 -0.0029783903 -0.02945195 0.0788641
000150 2f d8 b0 3c d0 48 5f bd 4e b6 49 3d de 8e ab 3d
       0.02158746 -0.0545128 0.049246125 0.08376859
000160 b9 08 d8 bd 24 c2 a8 bd 97 69 b0 bb b4 24 ae bd
       -0.10548539 -0.082401544 -0.005383681 -0.08503094
000170 64 28 76 bd 36 25 07 be a9 fd 21 3d 1b 20 f6 bd
       -0.060097113 -0.13197789 0.03954855 -0.120178424
000180 bb c3 33 bd 48 7a 00 be e4 94 0e bd 81 fe 35 be
       -0.043887835 -0.12546647 -0.034809962 -0.17772867
000190 e1 c1 58 3c c3 0b 14 bd c9 7f aa bc ab 95 95 bd
       0.013229818 -0.03614403 -0.020812886 -0.073039375
0001a0 8a 1e ab 3b 29 49 9a 3d 45 7e e2 bd 0f ed 2b 3d
       0.0052221464 0.075334854 -0.1105924 0.041974124
0001b0 de b7 d5 bd cd e1 11 be 09 50 00 be 80 0d 3d bd
       -0.104354605 -0.14246292 -0.12530531 -0.046155453
0001c0 70 29 fc bc 86 0a 27 be bb cb bc bd 6e 0f e2 3c
       -0.030781478 -0.16312608 -0.09218546 0.027595248
0001d0 1a 21 ab 3d ae 59 dd bc 48 9c 8a bd 7d f2 e5 bd
       0.08355923 -0.027020302 -0.067680895 -0.112278916
0001e0 6f 42 89 bd 01 e1 e7 bd 16 1f ad bd 29 89 7c bd
       -0.06702124 -0.11322213 -0.08453195 -0.061654244
0001f0 34 4e 74 3e dd f3 17 bd cc 80 75 3d 0b ee fd bd
       0.23857957 -0.0370978 0.059937283 -0.12398919
000200 59 84 f2 3d 4f 84 30 3e 80 94 73 3d fb e7 77 bd
       0.118416496 0.17237972 0.059467793 -0.06052397
000210 e6 21 bf bc 2f 24 3e 3d a2 b8 bd bc 4c 4a b9 bd
       -0.023331594 0.046421226 -0.023159329 -0.09047374
000220 2f bf 70 3a 52 b1 13 3e 49 73 5f bd b3 2f 35 3d
       0.0009183762 0.14423111 -0.054553304 0.044234943
000230 d1 f6 0c bc 19 7c b7 3d f3 2c 49 3d 86 14 75 3d
       -0.0086037675 0.089592166 0.049115133 0.059834026
000240 4a 80 49 3d f9 0d 68 3e 69 53 0b 3e eb 0d 86 3c
       0.04919461 0.2266158 0.13606037 0.016364058
000250 9d 80 36 3e ad 43 2d 3c b1 2b f8 3b 94 07 15 3c
       0.178225 0.010575217 0.007573568 0.009096045
000260 3f ef 11 bd aa ba bb bd a0 f0 c0 3c 58 90 5a bd
       -0.035628553 -0.09166463 0.023552239 -0.053360313
000270 ef 93 6f bd 21 dd c9 3d be a5 53 bc 6a d1 de 3d
       -0.05849069 0.0985663 -0.012917934 0.10879786
000280 2e 81 af 3c 76 21 63 3d d1 0e 27 bd 0c a1 08 bd
       0.021423902 0.055451833 -0.040785614 -0.03335671
000290 5c cb 86 3d b8 66 f5 bd 6c 78 cb 3c 44 69 cd bc
       0.065817565 -0.11982483 0.024837695 -0.025074609
0002a0 ba b8 6d 3c ed 26 c6 bd 91 fc ba bd 7b d7 40 3d
       0.014509374 -0.09675393 -0.091302045 0.0470805
0002b0 78 45 1d bd ce 78 13 3d 3c f3 05 3d e4 27 39 3c
       -0.03839633 0.03600388 0.03270267 0.011301015
0002c0 91 13 88 bd 6e dc 31 bd 1e 92 8f 3d 0d c5 c2 bc
       -0.06644357 -0.04342311 0.070102915 -0.023775602
0002d0 ac 5c 7e bd f6 72 4c 3d 6c 78 3f 3d 83 88 5e 3b
       -0.062100098 0.049914323 0.046745703 0.003395588
0002e0 33 db 04 bd d4 ab 17 bc 6f 14 31 bd 0e 2d e6 3d
       -0.032435607 -0.009257276 -0.043232378 0.11239062
0002f0 27 68 03 bc c1 e3 82 bd 0d 3e a8 bd 95 aa b7 bd
       -0.008020437 -0.06391097 -0.0821496 -0.08968083
000300 51 66 0d be 67 16 12 be e6 36 82 bd c7 6f 7c 3c
       -0.13808562 -0.14266358 -0.06358127 0.015407509
000310 cf e6 88 bc 4a b7 0a 3d 6d 73 58 3c 94 d7 a9 3c
       -0.01671162 0.033866204 0.013211113 0.020732678
000320 03 3e 72 bc ee 9f 8c bd 47 3c f7 bc 79 41 9d 3c
       -0.014785293 -0.06866442 -0.03018011 0.019196259
000330 5a bf 3b 3d f2 d5 d8 bd 07 73 72 bd 24 61 d1 bd
       0.045836784 -0.10587682 -0.05919173 -0.10223606
000340 0e fa 93 3b 30 5f 34 3d 41 37 fd bc c0 f9 94 bd
       0.004515893 0.04403609 -0.030910136 -0.072741985
000350 40 22 80 bd d2 ff 4e 3d 43 43 09 be 15 84 01 be
       -0.06256533 0.050536938 -0.13404565 -0.12648042
000360 34 52 5e 3d 76 1c 0d 3e 11 4a ec 3d 90 46 5a bd
       0.054277614 0.13780388 0.115375645 -0.05328995
000370 bc 70 10 3d 55 d3 c4 bd 9f c3 84 bd cc a8 39 3d
       0.035263762 -0.09610621 -0.06482624 0.045326993
000380 a7 10 a0 3d bf c0 fc 3a 7c a7 a2 bd 1a d1 da 3d
       0.07815676 0.0019283517 -0.07942101 0.10684414
000390 a9 86 8c bd ec 35 54 bc cc d9 c1 3d 3c b2 4c bd
       -0.06861622 -0.012952309 0.094653696 -0.049974665
0003a0 c2 7f 86 bd 13 2d 94 3d 10 49 6f 3c 02 8d 23 bc
       -0.065673366 0.0723516 0.014604822 -0.009982349
0003b0 11 10 a2 bd 94 47 15 bc 5b 37 15 3e b0 16 9c 3d
       -0.07913221 -0.009111304 0.14571898 0.07621515
0003c0 f8 35 30 bd e6 4e bd bd fb bd 60 bd a3 65 2d 3e
       -0.04302022 -0.09243564 -0.05486868 0.16933303
0003d0 62 02 65 3d a4 f0 fd 3d 2f d5 32 3d 2c fc c1 bd
       0.055910476 0.12399414 0.04366034 -0.09471926
0003e0 68 9e c8 3a ad 7f 94 bd 50 f3 60 3d 5f e2 76 bb
       0.0015305998 -0.07250915 0.05491954 -0.0037671549
0003f0 cf 2f 84 bc ec 58 ae bd 70 4a bb 3d 28 0e d5 bc
       -0.016136078 -0.08513054 0.09145057 -0.026007727

weight_hh_l0_reverse f4 [384, 96]
000000 f0 5d cf 3d 30 87 34 bd 50 00 85 3d 2a 6f b6 bd
       0.10125339 -0.044074237 0.064942 -0.089079216
000010 3c 3e 8f bc 6d d6 3d bd 68 12 cd 3d c2 49 54 bd
       -0.01748573 -0.04634707 0.10013276 -0.051828153
000020 6c f3 70 3d 00 47 41 3d 38 50 53 3d 30 83 ca 3c
       0.058825895 0.04718685 0.051590174 0.024720758
000030 10 86 83 bd 52 b6 18 bd 28 51 7e bd e0 d0 58 3b
       -0.06422055 -0.03728325 -0.062089115 0.0033083484
000040 b8 a7 2e 3c a8 5e 9c 3d 49 89 5b bd 37 2f c9 bd
       0.010660104 0.07635242 -0.053597722 -0.09823459
000050 53 9f c0 bd f0 b2 80 bd 0c a4 87 bc d0 d6 b6 3b
       -0.09405389 -0.062841296 -0.016557716 0.005579807
000060 d0 62 8b 3b cf 92 97 bd ba a4 3c bd 2e b4 81 3d
       0.0042537227 -0.074010484 -0.046055533 0.06333195
000070 d7 2e c0 bd db 10 2c bd 57 9e 9c bd 67 dd 55 bd
       -0.09383934 -0.042008262 -0.076473884 -0.0522131
000080 00 fa 20 ba e0 e4 fa bb 8f 5e 87 bd d8 fb fe 3c
       -0.00061407685 -0.0076566786 -0.066098325 0.031125948
000090 40 41 d0 3a 90 df 01 bd f8 a4 ce bc e8 a2 c2 3d
       0.0015888587 -0.031707346 -0.025225148 0.09503728
0000a0 a8 b2 a6 bc e0 5c 7c bd 5c 15 26 3d e4 dc c5 3d
       -0.020348862 -0.06161201 0.040547714 0.09661272
0000b0 6c ed a2 bd 00 12 2b 3d 58 c1 82 3d 40 57 25 bc
       -0.07955441 0.041765213 0.06384534 -0.010091603
0000c0 f8 d4 cd 3d ca a0 55 bd 95 91 47 bd 4c 5e a6 3d
       0.10050386 -0.052155294 -0.048722822 0.081234545
0000d0 0c a5 6d bd 10 41 04 3c d6 5b 0f bd 12 e6 c2 3d
       -0.05801873 0.008072153 -0.03499969 0.09516539
0000e0 50 2b 30 3d 6c f3 bd bc 06 6d 9c 3d 56 e9 b2 3d
       0.043010056 -0.023187362 0.07637982 0.087359115
0000f0 48 ff 90 3d 00 c5 08 bb c0 dd a6 bc 8f 8e c5 bd
       0.07079941 -0.0020869374 -0.02036941 -0.096463315
000100 a7 0c ca bd d0 20 b2 bd 00 10 90 3c 74 ba 71 3d
       -0.098656945 -0.08697665 0.017585754 0.059015706
000110 d4 aa cf bc 9c 15 bf 3d d4 57 ce 3d 7e 7b d0 3d
       -0.025350012 0.093302935 0.10075346 0.10179804
000120 d4 ff d8 bc b8 54 40 3d 27 6e 3b bd b8 9d b9 bd
       -0.026489176 0.046955794 -0.045759346 -0.090632856
000130 88 da b5 3d 86 e7 8c 3d b8 11 fc bc b5 24 70 bd
       0.08879572 0.06880097 -0.030770168 -0.058628757
000140 cc 52 49 bd 69 cf 61 bd 22 b1 86 bd 60 dc e6 bc
       -0.049151227 -0.055129442 -0.06576754 -0.028181255
000150 82 6c 16 bd 40 43 3a 3c e2 d8 b2 3d 1d dd bf bd
       -0.036724575 0.011368573 0.08732773 -0.09368346
000160 c0 3b 18 3d c0 d7 a1 3d d0 85 ad 3b 00 59 80 bd
       0.037166357 0.07902479 0.0052954927 -0.062669754
000170 bc 83 47 3d 00 12 59 3d 60 72 80 bd 10 1e dd 3b
       0.048709616 0.05299568 -0.06271815 0.0067479685
000180 d4 25 94 3c 5c 19 28 3d 3d 02 2b bd f2 45 a7 3d
       0.018084444 0.04103981 -0.04175018 0.08167638
000190 28 a7 c2 3d c0 1c 92 3d 99 04 27 bd b7 70 97 bd
       0.09504539 0.0713439 -0.04077587 -0.073945455
0001a0 2e 30 be bd 18 fc 39 3d 6c 4c c8 bd 30 f3 76 bd
       -0.09286533 0.04540643 -0.09780201 -0.060290515
0001b0 7c 00 5d 3d 62 b2 92 3d d9 09 c4 bd ac ea 1d bd
       0.05395554 0.0716293 -0.09572191 -0.03855388
0001c0 94 27 80 3d d0 a4 fc 3b 2f ab bd bd 00 91 46 bb
       0.06257549 0.007710077 -0.09261166 -0.003029883
0001d0 ec 8f e0 bc d6 87 04 bd f8 af 6c bc 28 b0 cb 3d
       -0.027412377 -0.032356106 -0.014446251 0.099457085
0001e0 78 98 d6 3c 40 ed 7c 3b 1c 5a 8e 3d 00 93 d0 bc
       0.02619575 0.003859356 0.06950781 -0.02546072
0001f0 d8 57 ca 3d 58 50 8d bd 63 ce 93 bd 73 d6 bc bd
       0.09880036 -0.0690009 -0.072170995 -0.092205904
000200 b4 d9 6f 3d 6b fb a2 bd d4 9e 3f 3d ad ba 5e bd
       0.058557227 -0.079581104 0.04678233 -0.054377247
000210 5d e8 ce bd 80 84 f0 ba f8 f9 80 3d e0 8f bf 3d
       -0.101029135 -0.0018350035 0.06297678 0.09353614
000220 22 e5 51 bd 3c 55 c6 3d d4 27 cc bc 28 a4 08 3d
       -0.05124391 0.09684226 -0.024921335 0.033359677
000230 40 58 6c bc e0 47 c0 bc 10 11 85 3d cc 76 1a 3d
       -0.014425337 -0.023471773 0.06497395 0.03771095
000240 e2 c4 cc 3d 6a f9 52 bd 5a e9 b6 bd 74 89 68 3d
       0.0999849 -0.05150739 -0.08931227 0.05677171
000250 22 0c c4 bd d8 63 23 3d 68 99 34 3d 84 f1 8c 3c
       -0.09572627 0.03989014 0.044091612 0.017205007
000260 03 5c af bd f0 91 b5 3b 40 26 01 3d 8e 5b c1 3d
       -0.08562472 0.0055410787 0.03153062 0.09441291
000270 c0 99 b1 3c 3a e9 89 3d e8 14 73 3d c0 e9 b6 3c
       0.021679759 0.067339376 0.05934611 0.022328258
000280 8e 3a ba 3d 10 33 37 bc da 11 9c bd 2c 06 a8 3d
       0.090932 -0.011181608 -0.076205924 0.08204302
000290 5c 07 bb bc 20 a4 38 3d 88 71 33 3d 00 06 16 bb
       -0.022830658 0.045078397 0.043809444 -0.002289176
0002a0 3e 11 8b 3d 40 c4 0e bd 98 d4 97 3d d0 c0 bc bc
       0.06790398 -0.034855127 0.07413596 -0.023041159
0002b0 18 b9 cd 3c 4e 9d a3 3d 19 75 ab bd 6b 7b 9e bd
       0.025112674 0.07988988 -0.08371944 -0.07738384
0002c0 80 07 b9 ba 30 33 64 3d d0 da 9d bc 78 cf c5 bd
       -0.0014116615 0.05571288 -0.019269377 -0.09658712
0002d0 80 e0 02 3d c0 ac 75 3c c6 98 a0 bd f7 a1 ce bd
       0.03195238 0.0149948 -0.07841639 -0.10089486
0002e0 a4 c0 8d 3d 5a 43 92 3d 40 b8 4c 3b 30 08 9b 3d
       0.06921509 0.071417525 0.0031237751 0.07569921
0002f0 95 ed 9b bd 80 a7 38 3d 20 2d 09 3b c0 f0 13 bb
       -0.076136746 0.045081615 0.0020931438 -0.0022573918
000300 00 fb a6 39 88 d3 6c 3c e6 5a 9c bd fc 8f be bc
       0.00031848997 0.01445473 -0.07634525 -0.023262016
000310 62 b3 86 3d 30 75 40 3c 00 f8 2a 3d c0 f2 8c 3b
       0.06577183 0.01174669 0.041740417 0.004301399
000320 d9 01 9c bd 38 c9 04 bd 74 d0 9b 3d b0 48 b0 bb
       -0.0761754 -0.03241846 0.07608119 -0.005379759
000330 f4 09 42 3d 3e 75 cd 3d 64 27 a8 3c c0 7d c4 3d
       0.047372773 0.10032128 0.020526595 0.095942974
000340 4c 0e e0 bc a0 0d 6e bc 57 c9 73 bd 68 f2 a4 bd
       -0.027350567 -0.014529616 -0.059518185 -0.08054048
000350 76 af a7 bd f7 6e 7b bd 48 ec ec 3c 7f c9 5f bd
       -0.081877634 -0.06138512 0.028921261 -0.05463552
000360 a7 f6 4b bd 64 d6 56 3d 5e 65 1e bd fe 79 93 bd
       -0.049795773 0.052450553 -0.03867089 -0.072010025
000370 35 1e a5 bd 08 75 99 3d dc f0 57 3d 98 fe 8a 3d
       -0.08062402 0.07493025 0.052719936 0.06786841
000380 5a 64 a7 3d c8 8c 0a 3c e4 18 bf 3d 53 15 b9 bd
       0.081734374 0.008456416 0.093309194 -0.090372704
000390 bf 88 b3 bd 00 69 87 3d a4 35 f3 bc e8 8f b6 3c
       -0.087663166 0.06611824 -0.029688664 0.022285417
0003a0 fc 04 da bc 6a c6 c5 bd d7 96 42 bd 1a c4 a7 3d
       -0.026613705 -0.09656985 -0.047507133 0.081917
0003b0 e8 fc 93 bd e6 75 c3 bd 40 90 55 3c 96 e7 bc 3d
       -0.072259724 -0.09543972 0.01303488 0.09223859
0003c0 9a 94 85 bd 10 77 2b 3c ba 42 8d bd 71 ba a4 bd
       -0.06522484 0.010465398 -0.06897493 -0.080433734
0003d0 60 7d ea 3c 86 20 93 bd d0 8a 08 3d 20 9b 38 3d
       0.028624237 -0.07183938 0.033335507 0.045069814
0003e0 aa 8f b5 bd 50 e0 13 3d 18 8e 91 3c 2e 6d cf 3d
       -0.08865292 0.036102593 0.01776795 0.10128246
0003f0 d0 0d 05 3d f4 2a 39 3d cc f3 1c bd 98 15 21 3d
       0.032483876 0.04520698 -0.03831844 0.039327234
